aqm/model.tflite (tflite, 3468 bytes, 13 tensors)

std.constant3 f4 [4, 4]
0	0x3ea67284	0.32509243
1	0xbd1c3050	-0.038132012
2	0x3e850fcf	0.25988623
3	0xbe840194	-0.25782454
4	0xbe022180	-0.12708092
5	0xbde84b1f	-0.11342453
6	0x3f06c6f2	0.52647316
7	0xbdd3fd84	-0.10351089
8	0x3e0209d7	0.12699066
9	0xbc8eb097	-0.017418189
10	0xbe44dd5e	-0.1922507
11	0x3d3ef5d2	0.04662115
12	0x3e72693f	0.2367296
13	0xbe37dd77	-0.17955576
14	0xbc6fb1d0	-0.014629796
15	0xbe9d4997	-0.30720207

std.constant4 f4 [4, 4]
0	0x3ea18d97	0.31553337
1	0xbea8b50e	-0.32950634
2	0xbe7c7d72	-0.24657229
3	0xbebdfa6e	-0.37105125
4	0xbf16499b	-0.58706063
5	0xbe723e6c	-0.23656625
6	0xbda14628	-0.07874709
7	0x3d7a9fdc	0.06118761
8	0xbdd7930c	-0.10526094
9	0xbf428ee8	-0.7599931
10	0x3e0cf3ed	0.13764925
11	0x3e3429de	0.17594096
12	0x3d4008c2	0.046883352
13	0x3c52a2d6	0.012856206
14	0xbe6f218d	-0.23352642
15	0x3e66f144	0.22552973

std.constant5 f4 [4, 4]
0	0x3e0662c2	0.1312361
1	0x3d897d3c	0.0671334
2	0xbefb6985	-0.49103943
3	0x3d5cf458	0.05394396
4	0x3e8895c6	0.26676768
5	0xbeab0cbb	-0.3340815
6	0xbe09fc5f	-0.13475178
7	0x3edd96a1	0.43278983
8	0xbd95867b	-0.07301041
9	0x3c44160a	0.011968145
10	0xbd9c97ad	-0.07646117
11	0x3d10f1c1	0.035386804
12	0x3e032af2	0.12809351
13	0x3e3640e3	0.1779819
14	0x3ec9ec93	0.39438304
15	0x3e9fb169	0.3119004

std.constant6 f4 [4, 4]
0	0x3ead84e3	0.33890447
1	0xbd9db78c	-0.077010244
2	0x3e440d54	0.1914571
3	0xbd90dc57	-0.070732765
4	0xbe0bd537	-0.13655554
5	0x3e005b54	0.12534839
6	0xbdb2d582	-0.0873213
7	0x3d86e585	0.06586746
8	0xbe8d638f	-0.2761502
9	0xbe2f5792	-0.17123249
10	0xbddfdd38	-0.10930866
11	0xbebd3294	-0.3695265
12	0xbe2d4356	-0.16920218
13	0x3ddfcf85	0.10928253
14	0xbcdea5bc	-0.027178638
15	0xbed21864	-0.41034234

std.constant7 f4 [4]
0	0x3e3032e3	0.17206912
1	0xbf0a63c4	-0.5405848
2	0xbda77188	-0.08175951
3	0x3eef42bc	0.46730602

std.constant8 f4 [4]
0	0x3f800000	1.0
1	0x3f800000	1.0
2	0x3f800000	1.0
3	0x3f800000	1.0

std.constant9 f4 [4]
0	0xbdbbabad	-0.09163604
1	0xbf6041b8	-0.8760028
2	0x3ef6a51b	0.4817284
3	0xbed36dbe	-0.41294664

std.constant10 f4 [4]
0	0x3ec6901f	0.3878183
1	0xbe5e38f1	-0.21701409
2	0x3dcab42c	0.09897646
3	0xbdee2b5a	-0.116293624

std.constant11 f4 [4, 1]
0	0x3ee25e2c	0.44212472
1	0x3f25af05	0.64720184
2	0x3f020ecd	0.50803834
3	0x3ecaf216	0.39637822

std.constant12 f4 [4, 1]
0	0x3db1a0d0	0.08673251
1	0x3f03ca3c	0.5148046
2	0x3d97f690	0.07420075
3	0xbef11040	-0.4708271

std.constant13 f4 [4, 1]
0	0x3e8ecae4	0.27889168
1	0x3ea23f1f	0.31688783
2	0x3e948d4f	0.2901406
3	0xbea247fc	-0.31695545

std.constant14 f4 [4, 1]
0	0x3ef921b2	0.4865852
1	0x3f2330a0	0.6374607
2	0x3f0106dc	0.5040109
3	0x3f23384c	0.6375778

std.constant15 f4 [1, 4]
0	0x3ff65881	1.9245759
1	0x3f8ca264	1.0987058
2	0x3f8db74e	1.1071565
3	0xbfe3be5b	-1.7792467
